CF_HV-AV_2/AIRL/logs/airl/model/airl_actor.pkl (torch, 6995 bytes, 5 tensors)

net.0.weight f4 [32, 3]
00000000: fda4 4bbd 2793 913e d7f8 f1be 4d95 dabe
00000010: 3316 5fbe c622 413e 89ba 07bb c2d7 ee3e
00000020: 9964 86bd d179 013e c7d4 5fbe 267d 0ebe
00000030: 906c 15bf 3e38 d9be dfb1 70be fa46 c4bc
00000040: 45f6 473e c1c3 c43e 607e c0be 3f58 75be
00000050: f836 463e 16af e63e 99ed 01be e651 e23e
00000060: 0630 78bd aee1 d43d dbc4 073f 95ed 07bf
00000070: b18e bebe a59b 32be f4da 6fbe 8d09 ff3e
00000080: e456 afbe ce88 8dbe e07a d0be 1ac3 03bf
00000090: 0a39 a0be cebc 053f 09d4 913e 82d5 8a3e
000000a0: aba2 f93c 07c4 8cbe 04c7 0a3e 82d8 00bf
000000b0: 2019 dfbe 0b76 81be ed38 d43e 310c b03e
000000c0: 75b4 83be 02f5 9fbc 9cf5 c53e 0864 143f
000000d0: 3f58 813e 1e96 da3d 543e ca3e 5b82 abbe
000000e0: bb1a ac3d 93eb e8be be5f d3be 1a32 8bbe
000000f0: 2717 863e e3da 753e e6e9 a3be 08dc 253e
00000100: 44ba a03e dff0 b1bd 4b21 3b3d af2f 173e
00000110: 379a a83e 1075 0a3f a767 ecbe 5aff 69be
00000120: 6211 7e3e 3194 f93e fd1b f23e 9bba 013f
00000130: b836 d33d 5f5d febe c461 413d bccf babe
00000140: ebfb 06bf adb2 093f 3df2 e93e c2e4 0cbf
00000150: f454 ba3d ebb0 07be 54c2 ffbd 61fb 94be
00000160: 0a59 4b3e bcf1 abbe 738e 5f3e 50bf 983e
00000170: 531e c63e 51c5 803e 4d81 09bf 20f4 babe
-0.049717892 0.2843258 -0.47260162 -0.42692032 -0.21785812 0.18860921 -0.002071055 0.46648985
-0.06562156 0.12644126 -0.21858512 -0.13914928 -0.5836878 -0.42425722 -0.23505352 -0.023959626
0.19527538 0.38430598 -0.37596416 -0.23959444 0.19356906 0.45055455 -0.12688293 0.4420311
-0.060592674 0.103946075 0.5303475 -0.53096896 -0.3721824 -0.17442186 -0.23423368 0.49811974
-0.3424598 -0.27643436 -0.40718746 -0.51469576 -0.31293517 0.5224122 0.28482082 0.2711602
0.030473074 -0.27493307 0.13552481 -0.50330365 -0.43573856 -0.25285372 0.4144968 0.343843
-0.25723615 -0.019526009 0.38663948 0.57965136 0.2526264 0.10673164 0.39500678 -0.3349789
0.08403536 -0.4549223 -0.41283983 -0.27186662 0.2618954 0.2400928 -0.32014388 0.16197217
0.3139211 -0.08688521 0.045686048 0.14764284 0.32930157 0.54084873 -0.4617283 -0.22851315
0.24811319 0.48745874 0.47286978 0.5067536 0.10313171 -0.49680611 0.047212377 -0.36486614
-0.52728146 0.5378826 0.45692626 -0.55036557 0.09098235 -0.13251083 -0.12488237 -0.29098037
0.19858184 -0.33582866 0.21831684 0.2983346 0.3869501 0.2515054 -0.5371292 -0.36514378

net.0.bias f4 [32]
00000000: d73f 883e 121e 043e 8327 debe 3b48 bcbe
00000010: 263a 043f 92a3 b23e ccf1 7bbe ad1d 1ebe
00000020: fd83 03bf c8d8 4ebc bc86 e1be 8388 e7be
00000030: 873b 69bc 1f06 b73d 39f8 57be f2c6 c23e
00000040: 29a3 b3be 76ba 0a3f daa6 d23e 6fde febe
00000050: ce5b 06be 15d7 bd3c 1995 d33d 5b65 f03d
00000060: c539 773e e489 173d ecb3 92be 8914 973e
00000070: bc31 15bf b25e c3be b799 10be a38e 80be
0.26611206 0.12902096 -0.4338952 -0.36773857 0.5165123 0.3489042 -0.24603957 -0.15441008
-0.51373273 -0.012624927 -0.44048107 -0.45221338 -0.014235384 0.089367144 -0.21090783 0.38042408
-0.3508542 0.54190767 0.41142923 -0.49779078 -0.13120958 0.023173848 0.103311725 0.11738082
0.24143131 0.036996737 -0.28652894 0.29507855 -0.58279014 -0.38158184 -0.14121138 -0.25108823

net.2.weight f4 [32, 32]
00000000: 41f4 64bd e9ef 18be d4ce e0bc 5131 dfbc
00000010: cbfa f4bd b491 183b ddfe f93d 27e3 54bc
00000020: 23c2 a73c c076 a1bc 38d0 d13d 1c1e dd3d
00000030: 1ecf 643e fbf1 f03d 9c69 103e 3a75 473d
00000040: 823e 28be 847e a2bd a543 ea3d 23ae b7bb
00000050: fda2 aabd 8f3b 06be a0b3 21be 63a1 1dbe
00000060: e5b7 00bd 5d52 d03d 2ff0 8e3d 7201 2abe
00000070: cf1b 543d 76de 07be e4c1 07bd a837 11be
00000080: a4f6 63bd 3973 40bc 6daa 36be 384d 5dbe
00000090: e6c5 98bb 8303 89bc 23d5 6abd b7f1 333d
000000a0: 056f 01be 0355 353c c502 5e3e 3014 49bd
000000b0: 1fc5 573e adb7 293d ea6d 20be 8b27 2b3e
000000c0: 6984 263b 88b5 d0bd e7c9 e83d cb75 f5bd
000000d0: 3d6a 81bb f2fa 75bd 8997 d33d 0958 b33c
000000e0: a5a5 7d3d 6d76 223d 5398 1abd 0f72 76bd
000000f0: 453b 52be da72 fc3d e710 f03d 3ed0 6b3d
00000100: 58c4 fabd 0da7 ed3b cb4f f5bd 5415 31be
00000110: 50db d3bd 37dd 883d 6ed9 d8bd c602 17ba
00000120: b0c0 d33c 5b7b e83d 8809 6bbd d660 f9bd
00000130: 72c4 1dbd 0e2a 013e b521 acbd d731 603e
00000140: a10e 7e3d 3e08 bb3c d17b 6bbc 87e7 10bd
00000150: 1419 bc3c e3b0 23bd eadf 393b f127 2e3c
00000160: d52d 0dbe 4e2b bbbd cc21 ff3d b86e 12be
00000170: 64ba a7bd e696 3f3e 4a3f 833d 3e1a 96bd
00000180: 341e 15be 0af5 a03d f944 f5bd ef36 fc3c
00000190: 112b 8cbd a445 b3bc 7505 e9bb 8255 1c3e
000001a0: 1bce 34bb 33ca 183e 3d7b ca3c d4a1 f7bd
000001b0: a57a 033c 6b65 f1bd 58db 8dbd 996c c9bc
000001c0: fdb9 503d 8025 113e dd54 09bd 6a06 11bc
000001d0: e26c cc3d daad 25be 6e8e 0a3e 1d24 00be
000001e0: 39e8 3d3c f007 b3bc 68f4 babd 0604 053d
000001f0: 828a 623e e9eb 99bd a9df c3bd 9601 453c
00000200: cef3 2cbe 4e11 953d d3e2 a6bd 12db 46bd
00000210: 2515 dfbd bdb5 d33d 3a51 b13d b31b 113e
00000220: ff09 283d c569 87bd 32a2 f5bd 05cd 383d
00000230: fc6c b23d 6391 5d3d a79d 95bd 2371 16be
00000240: 93b2 31be 396d 393d 0cc1 aabd fda5 28be
00000250: 46d0 253e 637b dcbd e3e2 76bc 917d 853d
00000260: 99c1 503c ed1c e6bd bccc 09be fe86 173e
00000270: f8b8 bd3d 1318 063e d9e6 54bd def5 f93d
00000280: b85f 2bbd 8b98 a2bb 5d58 dabd a597 36bc
00000290: 1e3d 713d 0bc7 57ba 9dca 16bd e1ca e2bd
000002a0: f1b9 113e f6ad 03be d3ad 133e c310 67bd
000002b0: 106e d5bc fcf0 f33c b6a8 ddbd b22a d83d
000002c0: b2fb 173d 8d79 09be 369d 6b3c d95c a03d
000002d0: e091 893d 2549 cfbc 3396 15be a6f1 29bd
000002e0: 360f 6f3d a454 89bd cd5e 583d e8fb ea3d
000002f0: 651d 21be 6568 823c b127 8f3d 8931 76bd
00000300: d1e7 d83c 4b1d 013c 915f f8bd b769 6a3d
00000310: 843b dd3d a922 303e c581 b73d 5af5 153d
00000320: 6cfa 753d 4196 cdbd 6455 31be b067 2abe
00000330: 22b1 0a3e da79 023e b61d 11be d243 ef3c
00000340: 930f f13d 38ac 433e 8354 303e f005 fb3d
00000350: a9ad d7bc 2e30 43bd 5d28 263e 05a6 f13d
00000360: 8262 bcbd ac9a 313e 3937 703d eec6 e23d
00000370: 026f 94bd 26af 053d 4cbd 42bd c4cc 2c3e
00000380: ce1a 2abd 05d4 9c3d fd04 b83c 7f9e 173e
00000390: 84de 56bd 5876 9a3d 9c1e edbd 065d f83c
000003a0: 317e 01be 7fc8 2abe 0a4c 5cbe 66ad 163e
000003b0: 54ce 1c3d d9b1 203e f08d 1f3e 76d9 62be
000003c0: 4433 e5bd a139 14bd 231e dcbd 4d7e 053e
000003d0: 36ea 10be 9e29 c0bd 2526 36be a840 c1bd
000003e0: 641e 0d3e dcec 0b3e 1696 0d3e 64f3 033e
000003f0: ff78 633e bbba 53bd 7d28 903d cd2e 663e
-0.055897 -0.14935268 -0.027442373 -0.027245196 -0.119618975 0.0023280205 0.122068144 -0.01299361
0.020478314 -0.019709945 0.10244793 0.107967585 0.22344634 0.11764904 0.14102787 0.04869578
-0.16430095 -0.07934287 0.114386834 -0.0056054755 -0.08331869 -0.13108657 -0.15791178 -0.15393595
-0.031425375 0.101719595 0.06979405 -0.16602114 0.051784333 -0.13268456 -0.033143893 -0.14181387
-0.055655137 -0.011746221 -0.1783845 -0.21611488 -0.004662263 -0.016725307 -0.05733217 0.04393169
-0.12640007 0.011067632 0.21680744 -0.049091518 0.2107129 0.041434933 -0.15666929 0.16714303
0.0025408512 -0.10190874 0.11366635 -0.11985358 -0.003949432 -0.060053773 0.103316374 0.021892564
0.06192555 0.03966372 -0.037742924 -0.06016737 -0.20530422 0.12326594 0.11721974 0.057571642
-0.12244481 0.00725258 -0.1197811 -0.17293292 -0.10344565 0.066828184 -0.105883464 -0.0005760606
0.025848716 0.11351653 -0.057382137 -0.12176673 -0.038517423 0.12613699 -0.084048666 0.21894012
0.06202567 0.022831079 -0.014372782 -0.03537705 0.022961177 -0.039963614 0.0028362223 0.01062964
-0.13787015 -0.09139119 0.12457618 -0.14300048 -0.08189848 0.18709907 0.06408556 -0.07329224
-0.14562303 0.078592375 -0.11976046 0.030787913 -0.06844152 -0.021883793 -0.007111246 0.15266994
-0.0027588669 0.14920883 0.024716968 -0.12091413 0.008024846 -0.11786922 -0.06926602 -0.024587916
0.050958622 0.14174461 -0.033528198 -0.008851627 0.09981705 -0.161796 0.13530895 -0.12513776
0.011591011 -0.02185437 -0.09128648 0.03247454 0.22123149 -0.075156994 -0.09564144 0.012024304
-0.16889879 0.07278691 -0.08148732 -0.048548765 -0.10892705 0.10337398 0.08658071 0.14170723
0.041025158 -0.06611971 -0.11993827 0.045117397 0.08712193 0.05409373 -0.073054604 -0.14691596
-0.17353277 0.04527018 -0.08337602 -0.1646957 0.16192731 -0.10765722 -0.015068742 0.065180905
0.01274147 -0.11235986 -0.13457006 0.14797589 0.092637956 0.13095121 -0.051977966 0.122050986
-0.04183933 -0.004962032 -0.10661385 -0.011144553 0.058896177 -0.0008231259 -0.03681432 -0.11073852
0.14231087 -0.1285933 0.14421777 -0.05641247 -0.026053458 0.029777996 -0.10823195 0.105550185
0.03710527 -0.13425274 0.014380744 0.07830209 0.067172766 -0.025303433 -0.14608078 -0.04149022
0.058364116 -0.06705597 0.052824784 0.114738286 -0.1573387 0.01591892 0.069899924 -0.060105834
0.026477726 0.007880519 -0.12127603 0.057229724 0.10802367 0.17200722 0.089602984 0.03661094
0.060053274 -0.10038424 -0.1731773 -0.16641116 0.13544133 0.12741795 -0.1417149 0.029207144
0.11770549 0.19108665 0.17219739 0.12256992 -0.026327925 -0.04765337 0.16226335 0.11799244
-0.091984764 0.17344159 0.058646414 0.11073099 -0.072477356 0.032637738 -0.04754381 0.16874987
-0.04152947 0.07657627 0.022463316 0.14806555 -0.0524583 0.075421035 -0.11578104 0.030317795
-0.12645794 -0.16678046 -0.21513382 0.14714584 0.038282707 0.15692843 0.15581489 -0.22153267
-0.11191419 -0.03618777 -0.107479356 0.13036461 -0.14151844 -0.09382938 -0.17787988 -0.0943616
0.13781124 0.13664573 0.13826784 0.12885815 0.22214125 -0.051691752 0.070389725 0.2247879

net.2.bias f4 [32]
00000000: 7496 13be e50c a7bc e515 0f3e 3bac 11be
00000010: 55fc 92bd a1e8 1b3e 0dff 79bc a164 863d
00000020: 9f25 26be 5904 35bd ddd4 ccbd 27fb 113e
00000030: 8ec6 a93d d260 08be 95ac e43c f03c 95bb
00000040: 244e 6fbd c745 c6bd e4aa 53bd 4b67 033e
00000050: 9fea 0dbe 9bdd 06be 70bd 40bd 92ed 1e3c
00000060: 4212 013d 3a8e d5bb c287 c9bc 726a d8bd
00000070: 8195 10bd 8a6e a7bd 397a 073e 661e 39be
-0.14412862 -0.02039189 0.13973196 -0.14225857 -0.07177035 0.1522546 -0.015258563 0.06562162
-0.16225289 -0.0441936 -0.10001538 0.14255963 0.082898244 -0.13318184 0.027914325 -0.0045543835
-0.05842413 -0.09681278 -0.051676646 0.12832372 -0.13859032 -0.13170473 -0.04705566 0.009700196
0.031511553 -0.006517199 -0.024600867 -0.10567178 -0.035298828 -0.081753805 0.13230218 -0.18078002

net.4.weight f4 [1, 32]
00000000: 826d 04be 2e5f 38be 996e 73bd db49 fe3d
00000010: 5f7d 113e ae25 3ebe b668 693c e70f 293e
00000020: d27e d13d 6965 223e e6e9 7a3d a32a b9bd
00000030: a1f4 f13d ab87 68bd bef1 ce3d f56a 2fbd
00000040: 0606 853d f3ae 583e 42ca 373e d55b 2fbe
00000050: ac81 2cbe a5a4 00be 3686 00be 29b9 323e
00000060: 0ce3 08bc 3888 33be e507 f6bd 78c8 a9bd
00000070: 22d8 cc3d 03d1 1bbe 9d0b 3dbe 8fd2 31be
-0.12932399 -0.18005058 -0.059431646 0.124164306 0.14207982 -0.18569061 0.014246156 0.16509973
0.10229267 0.15858997 0.06125822 -0.090413354 0.118142374 -0.056770008 0.101047024 -0.04282661
0.064952895 0.21160488 0.17948249 -0.17124875 -0.16846341 -0.12562807 -0.12551197 0.17453445
-0.008354913 -0.17532432 -0.120132245 -0.082901895 0.100021616 -0.1521645 -0.18461461 -0.17365478
