CF_HV-AV_4/GAIL/logs/gail/model/gail_actor.pkl (torch, 20051 bytes, 5 tensors)

net.0.weight f4 [64, 3]
00000000: 31d5 5a3c 8fb7 a13e b330 dcbe 4764 cebe
00000010: db81 56be 8cc5 293e a518 a3bd a6e1 ce3e
00000020: b6c4 ef3d 271a 1e3e 56e9 38be 0a46 91be
00000030: 8498 ddbe 258b 97be 9fbc a6be 642e 5cbd
00000040: 68c8 2a3e f826 f73e 72bc bfbe ff1a 7abe
00000050: a299 5c3e be5f e13e 6df4 28be f9a5 013f
00000060: 2ed3 9bbd 2f4b c73d c54a 373f 654c 11bf
00000070: 3368 aabe 25e7 bfbd fe68 67be f4f6 f93e
00000080: d9d4 fbbe 3c48 49be 7dc5 95be 071d 26bf
00000090: 9560 b0be 6d1b ff3e 5019 003f 9114 923e
000000a0: e0a7 a53d 56fb 6bbe ec91 e13d dc05 0dbf
000000b0: 7913 ddbe be7d 9bbe 6f59 ba3e 539a 0b3f
000000c0: a860 4abe 36a3 e13c c1c0 c43e aeaf 083f
000000d0: ccfa 7a3e ad13 073e 671c c53e 0754 a5be
000000e0: 6214 593e 8561 d6be 54fc c8be 15a5 8fbe
000000f0: add4 953e 0b7e 9c3e 5b0d 84be e303 173e
00000100: c940 8e3e c7aa 353d 3aaf 47bc 961b cb3d
00000110: 4b32 f83e 1c1b 253f 5313 b9be dd0e 71be
00000120: f6f0 863e 274e 123f 3f0b da3e 70c9 ef3e
00000130: fbd6 bc3d df73 07bf a1a9 cd3c 6768 e6be
00000140: adef fcbe 4361 ee3e 20ed 003f 7e7a 02bf
00000150: 95d9 953d 1b83 fdbd 5cdf efbd 6615 8ebe
00000160: ecf6 5e3e d0e9 a5be a18c ba3d cacc b13d
00000170: 0a2b 1b3f 67dc 1c3e f3ca 26bf a7e7 adbe
00000180: 33dd a93e b809 313e 6e9b d0be 64a1 4dbe
00000190: b3aa 2f3f c957 aa3e 96f3 fdbd af4b d4bc
000001a0: 834e 3ebf 28a0 61bb 9039 dabe 7b6e edbe
000001b0: de9c 2dbd b77a c23d f3db 9fbe 965f b23e
000001c0: e561 acbe a773 0a3f 4bad bb3e 1b71 05bf
000001d0: e614 b2be b90d c13c a020 f13c 6f1a 853e
000001e0: 79c8 853e 9b22 933d 35f9 88be c097 2c3e
000001f0: f400 25bf aa69 9dbe e98e f1bd 2ec7 4fbe
00000200: 0c1c 98be c154 c5be 9af9 44be 28c7 263d
00000210: e911 b5be 3ead 5ebc d1fc dc3e 9483 5fbb
00000220: 55fe 563d e450 48bd cc62 ee3d 8d1d dc3e
00000230: 87b0 063f 7735 963e bfac 063f 604b 813d
00000240: ccc5 d9be de2c a8be e1c8 a53e 97f3 503d
00000250: ed65 78be d23a 0fbf 2f43 e3be 3725 d3be
00000260: 8dad 5fbe 93b0 8a3e 16db 9a3e ca2e 0ebf
00000270: 4252 a63e 32ec f9be fa5d a2be 55d3 9bbe
00000280: 1191 13be f915 0abd d79d 0fbf 0878 f6be
00000290: 3629 20bc 75ce 553d 09b0 52be 6ad7 7d3e
000002a0: fbbf 04bf de8c 12bd 17a0 033f 7d4a 19be
000002b0: 331c 1d3f 5752 483e 7cf4 02bf 66f5 c13e
000002c0: 6d4a 05be f1fd 66be 74ea ec3e bf39 1fbf
000002d0: 8384 513d f3c0 f0bd 5eaa 063f 53e7 bb3d
000002e0: f2ae 2f3e 3aab c63e 504b acbd ba9e cbbc
000002f0: bac2 1cbf 5c48 ca3e aecc 0d3f 7024 883e
0.013356493 0.31585357 -0.43005905 -0.4031088 -0.20947973 0.16579264 -0.07963685 0.4040653
0.117074415 0.15439664 -0.1805776 -0.28373748 -0.43280423 -0.29598346 -0.3256578 -0.05375518
0.16678011 0.48271918 -0.3744846 -0.2442436 0.21542981 0.44018358 -0.16499491 0.5064388
-0.07608639 0.09731137 0.71598464 -0.56757194 -0.33282623 -0.09370259 -0.22598645 0.48821223
-0.49185827 -0.19656461 -0.29252234 -0.6488804 -0.34448686 0.49825612 0.50038624 0.28531316
0.0808866 -0.23045096 0.110141605 -0.55087066 -0.4317892 -0.3036937 0.36396357 0.54532355
-0.19763434 0.027543645 0.3842831 0.53393066 0.24509734 0.131911 0.38498232 -0.3229067
0.21199182 -0.41871276 -0.3925501 -0.28055635 0.2926382 0.30564913 -0.2579144 0.14747576
0.27783802 0.04435232 -0.012187773 0.09917371 0.4847587 0.6449449 -0.36147556 -0.23540826
0.26355714 0.571505 0.42586705 0.46833372 0.09220692 -0.5291118 0.0251053 -0.45001528
-0.49401608 0.4655858 0.50361824 -0.5096816 0.07316891 -0.12378522 -0.11712524 -0.277507
0.2177388 -0.32404947 0.09108854 0.086816385 0.6061255 0.15318452 -0.65153426 -0.339658
0.33176574 0.17288864 -0.40743583 -0.20081097 0.6861984 0.332701 -0.12399976 -0.025914995
-0.7433855 -0.0034427736 -0.42622042 -0.46373352 -0.04238593 0.09496062 -0.31222495 0.3483855
-0.33668438 0.5408272 0.3665565 -0.5212571 -0.3478157 0.023566114 0.029434502 0.2599673
0.2612951 0.07184335 -0.2675263 0.16854763 -0.6445458 -0.30744678 -0.11794836 -0.20290825
-0.29708898 -0.38541225 -0.1923584 0.040717274 -0.35365227 -0.013591109 0.43161634 -0.0034105526
0.052488644 -0.04890527 0.11639938 0.42991295 0.5261311 0.29337665 0.5260734 0.06313205
-0.4253372 -0.3284673 0.3237982 0.051013555 -0.24257632 -0.5594913 -0.44387195 -0.4123933
-0.21843548 0.2708784 0.30245274 -0.55540144 0.32484633 -0.48813015 -0.31712323 -0.3043467
-0.14410807 -0.03371236 -0.5610022 -0.48138452 -0.00977545 0.052198846 -0.20574965 0.24789205
-0.5185544 -0.035778873 0.5141615 -0.14969821 0.61371154 0.1956266 -0.51154304 0.37882537
-0.13016672 -0.22557808 0.46272624 -0.6219749 0.051151764 -0.11755552 0.5260371 0.09174981
0.1715658 0.3880251 -0.08412802 -0.02485596 -0.6123463 0.3950833 0.5539044 0.265903

net.0.bias f4 [64]
00000000: e5bd ccbe b6bc ba3c 29aa f1be 88ac a3be
00000010: 6055 7bbe e0af 0a3e 0c51 afbe 3cab 9bbd
00000020: 1b21 8e3d 6ac9 ca3e e414 dcbe 8901 96be
00000030: 5fe9 a8be b409 ea3e cb8c 60be 8f30 f53e
00000040: 1358 793e 3da8 af3d aad9 c43c 5848 c1bd
00000050: 5db0 dc3d d269 2dbe 96ed 54bd 9636 2a3e
00000060: c380 c2be 0569 acbe 5a6d c13e 08c4 d1be
00000070: 646b 9cbd 7361 0b3f 8c37 e23c 1bab 82bd
00000080: a8ee f7be 52c0 d53e fdac 8fbe 32eb 15be
00000090: ec6f 46be ef6b 13bd b8cb afbc 1ef5 df3e
000000a0: c894 ad3d 95eb db3e dfad d33e 2db1 d0be
000000b0: 45f6 8a3e b213 b3be 89ef 43be 23d4 0e3e
000000c0: a2b6 233e 2b4e f33e 43f2 d7bd 469a 9abb
000000d0: b26e 893e 4ad9 16bf f5d0 de3e 5f59 d3be
000000e0: 3bcd 003c 6028 81bb 90e8 9dbe 7ae7 b53d
000000f0: 6068 f43e 5ca7 87be 9984 7bbe 1abd e6bd
-0.39988628 0.022795063 -0.47200134 -0.31967568 -0.24544287 0.13543653 -0.3424152 -0.0760102
0.06939908 0.39606792 -0.42984688 -0.29298046 -0.32990548 0.45710528 -0.21928708 0.4788861
0.24350004 0.08577011 0.024029572 -0.094376266 0.10775826 -0.16934898 -0.051984392 0.16622385
-0.37988862 -0.33673874 0.3777874 -0.40969872 -0.07637671 0.5444557 0.027614377 -0.06380292
-0.48424268 0.4174829 -0.28061667 -0.14640501 -0.19378632 -0.035991605 -0.021459445 0.43741697
0.084756434 0.42953172 0.4134359 -0.40760174 0.27141014 -0.34975964 -0.19134344 0.13948111
0.15987638 0.47520575 -0.10544255 -0.004718098 0.26842266 -0.58925307 0.43518797 -0.41279122
0.007861431 -0.0039415807 -0.30841494 0.08882041 0.47735882 -0.26494873 -0.245623 -0.11266537

net.2.weight f4 [64, 64]
00000000: 49cb edbd b2dc 4a3d b26e 74bd e31a 97bc
00000010: b0bb a1bd e123 673d 5bb1 723d 99b6 d53d
00000020: c2d8 9cbd fc5e 47bd 4f60 953c 5549 003d
00000030: dec3 04bb c66f dc3c 866f bfbd 95a5 33be
00000040: b15c e8bd 74e6 0b3d 003c 91bd 4a73 f2bd
00000050: 0cdf ec3d c22a 9abd c9ff 47bd 29ea 2e3d
00000060: ead7 203c e80a bfbd 3dd9 fabd 4e6f db3d
00000070: 37b6 be3c a63f d43d 69eb 48bd 5df0 7a3a
00000080: 0c90 0fbd f39a 473c 7173 8cbd 98c5 df3c
00000090: c631 b33d 896e 303b 18a6 5c3d ebec 9bbd
000000a0: 6135 b03d e3b3 b8bd 66b7 483d 9ad8 49bd
000000b0: 8e5b 5cbd b46c ce3c 8df5 5bbd 4dec 123d
000000c0: 4c6e 943c dc15 a7bd 2297 613c 16e4 5e3d
000000d0: 1bbb f83d ee22 b5bc 0e44 e0bd 49ea 06bd
000000e0: c52f 3d3d 03af a1bc 96a7 193d 1140 143e
000000f0: 620d efbd 7e5c 2e3b f292 893d e541 893c
00000100: b5b1 4e3d 3ac1 b6bc eb36 83bd b935 063d
00000110: 3ae8 463d a45e 013e 0532 113d 9957 463d
00000120: 5ed2 57bc b648 cabd b3c3 00bd 3134 14be
00000130: 3fe2 973d 0b83 e93d 5d1e 20be 71d5 6fbb
00000140: 8820 6f3d e3ed 263e 372d 0a3e 6243 713d
00000150: 1abf 143c 8917 cfbb f84c b43d fe93 e33d
00000160: 0bae 1cbd 29c2 153e 2ec5 77bb e8da d93d
00000170: 561b c7bd d090 be3c 1cd1 8dbc 9542 d63c
00000180: 565b 393c 0ae1 ce3d 9352 cbbb 59ab a33b
00000190: 098f 7d3c 231c 993d 49fb 3fbd e614 693d
000001a0: efed 47bd 74a7 20be 2056 0abe 957f 783d
000001b0: 2237 063d e5ef e63d 9fc7 143e e496 96bd
000001c0: bf39 fcbd b94e 27bd 1d3d f4bd d7fb fb3d
000001d0: 776f 60bd 5a77 c9bd 51a5 22be f9eb 04be
000001e0: 5d5d 8a3d 3463 293e b59e 593d 750c 2f3e
000001f0: e018 893d d501 1c3b f9b4 1d3d 5bed 183e
00000200: e266 133d 7ecf 013e 84ef 9b3d 4ca0 88bc
00000210: 2efa 2cbd cf85 c33d 5ecc 833c 1e58 c1bc
00000220: 945a d93d 8177 8cbd 42ef 05be e7e5 aa3d
00000230: dba3 713e c63a b8bb cfbf 7cbd 5952 843e
00000240: 009b 8c3d 117d f73b 7f91 42bd 9046 ee3d
00000250: 2e67 4c3d 7915 c3bd 484b 373e dd5d b13d
00000260: 869b 3cbd 5282 a73d 54fd 98bd 028a b8bc
00000270: 2e08 d43d 1456 d6bb 796e 95bd b6b2 ebbc
00000280: 64ff cebc b99b d2bc b30f b6bb 4c2a f13d
00000290: 89f3 0dbd 11a9 8ebd 4128 edbd d8b0 883d
000002a0: da2d 823d 0cef 05be 568c e3bc ec0d babd
000002b0: 1d31 83bd 64cd 893c 667e c0bd b282 373d
000002c0: 555d de3d b3d0 e6bc fe46 a7bd 1f22 35bd
000002d0: c25c 9cbd c24c c1bd 3987 823d f0ea e1bd
000002e0: c212 02be 70a6 02be b7a2 9ebc af27 303d
000002f0: 5234 18bd 1ab5 e23d fc69 9bbd dba3 0f3d
00000300: 3e51 ff3b 9d74 f0bd 5c74 f03d 8b59 a4bb
00000310: fb00 f43d b396 b13d 00fb b2bd 9f24 e23d
00000320: be52 1a3e 5a19 5e3d d565 00be a306 2dbd
00000330: 9d4f f2bb 073c 00bd 0e91 133d 709f ed3c
00000340: 8511 b63c 9072 933d 9dc0 c13c 5fc1 b5bd
00000350: 3899 bbbd 50e3 05bd da95 be3d bdec e83d
00000360: eaa4 9f3d 5ed2 df3b 7d39 323d e83e f4bd
00000370: 7fe1 e6bd c503 7a3d a6d0 55bd 88b4 8d3d
00000380: 6f7a 90bd b930 65bd 6ed1 f9bd bf3e 893d
00000390: d324 21bd 7369 bb3d 7735 babc 9d0c a23d
000003a0: 33de 603c c0d7 81bd d99c 17bd 8189 473c
000003b0: 04d5 353d 85b8 a4bd 879b d53d 555f 0cbc
000003c0: ad10 debd d338 b8bd 122f d83d 8ac8 f83d
000003d0: 0bf1 50be 7157 a93d b0f3 6b3d ebcd 913d
000003e0: e00e bc3d a27c 8abd 3fae 483d 431e 833c
000003f0: e5e3 d53b 1343 583d c25a 7abd 71c3 a83d
-0.11611039 0.049526878 -0.05967588 -0.018445438 -0.07897127 0.0564307 0.05925117 0.10435218
-0.07658531 -0.04867457 0.0182344 0.031319935 -0.0020258348 0.026908766 -0.09347443 -0.17543633
-0.113458045 0.034155324 -0.07091522 -0.11838396 0.1156598 -0.07527687 -0.04882792 0.04270378
0.009817103 -0.09328252 -0.12248466 0.10714589 0.023280246 0.103637025 -0.04905263 0.000957256
-0.035049483 0.012182939 -0.06857956 0.0273159 0.08749728 0.0026921353 0.053869337 -0.07613548
0.08603931 -0.09018686 0.049003027 -0.049278833 -0.05379825 0.025198318 -0.053700972 0.035869885
0.018119 -0.08158466 0.013768943 0.05441674 0.121450625 -0.022111382 -0.109504804 -0.032938275
0.046188135 -0.019736772 0.037513338 0.14477564 -0.116724744 0.0026605423 0.06717481 0.016755054
0.050462443 -0.022308934 -0.06406959 0.032766078 0.048561312 0.12633759 0.035448093 0.048423383
-0.013172714 -0.0987715 -0.031436633 -0.14473034 0.074162 0.114019476 -0.15636583 -0.0036595727
0.058380634 0.16301684 0.1349381 0.058902152 0.009078765 -0.0063199443 0.08803743 0.11112212
-0.038251918 0.14624847 -0.0037806737 0.10637456 -0.09722011 0.023262411 -0.017311625 0.026154796
0.01131328 0.101015165 -0.006204912 0.0049947915 0.015475997 0.0747607 -0.046870504 0.056904696
-0.048810896 -0.15688878 -0.13509417 0.060668547 0.032767422 0.11276225 0.14529274 -0.07352999
-0.12315702 -0.04084656 -0.11925719 0.12303894 -0.0547938 -0.09837218 -0.15883376 -0.12980641
0.06756089 0.16541749 0.05312987 0.17094596 0.06694198 0.0023804803 0.038502667 0.14934294
0.03598679 0.12676808 0.07614043 -0.016677998 -0.042230777 0.09547006 0.01608866 -0.023601588
0.106129795 -0.06858731 -0.13079551 0.08344632 0.23597662 -0.0056222407 -0.06170636 0.25844076
0.068655014 0.007552751 -0.047502037 0.116345525 0.049903087 -0.0952558 0.17899811 0.08660481
-0.046046756 0.081791535 -0.074701935 -0.022526745 0.10353123 -0.006541023 -0.072964616 -0.02877174
-0.025268264 -0.02570902 -0.0055560707 0.117756456 -0.03465608 -0.069658406 -0.115799434 0.06674355
0.06356402 -0.1307947 -0.027776878 -0.09084687 -0.06405852 0.01682157 -0.093991086 0.044802375
0.108576454 -0.028175687 -0.081678376 -0.044221994 -0.0763488 -0.094384685 0.06373448 -0.11031139
-0.12702468 -0.12758803 -0.019364698 0.043006595 -0.03715927 0.11069699 -0.07588574 0.035068374
0.0077916672 -0.11740992 0.11740944 -0.005015557 0.119142495 0.08671322 -0.08739281 0.11042141
0.15070626 0.054223396 -0.12538846 -0.042242657 -0.0073947445 -0.031307247 0.036027007 0.02900669
0.02222515 0.071995854 0.023651415 -0.08874773 -0.091600835 -0.032687485 0.09305926 0.11373279
0.07795127 0.0068304976 0.043511856 -0.11926061 -0.11273479 0.06103875 -0.052200936 0.06919199
-0.07054602 -0.05595467 -0.12198149 0.06701421 -0.03934176 0.09150972 -0.022730572 0.07912562
0.013724851 -0.06339979 -0.037014816 0.01217878 0.0443926 -0.08043007 0.10430055 -0.008567651
-0.108430244 -0.08995213 0.10555853 0.12147625 -0.2040445 0.08268631 0.057605445 0.07119354
0.09182525 -0.06762053 0.0489943 0.01600564 0.0065274113 0.052798342 -0.06112171 0.082404025

net.2.bias f4 [64]
00000000: bb86 65bd d48c 753d 9622 e83d 53ac d13c
00000010: 6975 7ebd 7997 783c 95c5 e5bd 6e1a 97bd
00000020: 605a 2fbd b94c 8abd ea23 df3d 643d b73c
00000030: 066b cc3d d263 0abd 291a 29bd 3efb e13c
00000040: 4f51 5cbd 7f29 29bd e151 f7bd b824 e33d
00000050: bd3a ec3d a3e3 05be 2ded 36bd c7c7 e9bd
00000060: 5676 5abd 16e5 bc3d 6b47 443d 8f51 f5bc
00000070: 9a0d 6d3d f567 773d 5485 6d3d 7bae c4bd
00000080: e4ad 333d 1492 ebbd 6e1d bfbd 4cbe 6dbd
00000090: 1d6a 62bd ef8a 02be 4835 b5bb 44aa 9d3c
000000a0: 6e04 43bd f314 1f3d 5147 0b3e c9a3 c8bc
000000b0: dfdc 91bd 26b2 f6bd e577 aebd d831 55bd
000000c0: 661a b6bd 2e90 18bd 6496 7f3d e57d fd3c
000000d0: 80c0 d73d 1570 0f3e 920a 33bd 24b4 58bd
000000e0: e70e 183b b4de c8bd 4505 8e3d 2d23 c5bc
000000f0: d66e e0bd 9fdf ccbd 3ce1 dcbd 5b63 203d
-0.056036692 0.059948757 0.11334722 0.025594866 -0.06212369 0.015172833 -0.112193264 -0.07378088
-0.042810798 -0.06752915 0.10895522 0.02236814 0.099813506 -0.033786602 -0.041284714 0.027585622
-0.05378848 -0.04129934 -0.12076164 0.11090988 0.11534641 -0.13075118 -0.044659782 -0.11415058
-0.05333551 0.09223382 0.047919672 -0.029946117 0.0578743 0.060401876 0.05798848 -0.09603592
0.043867007 -0.115024716 -0.09331785 -0.05804281 -0.05527698 -0.12748311 -0.0055300333 0.019246228
-0.047611646 0.038838338 0.13601424 -0.024492161 -0.07122206 -0.12045698 -0.08518962 -0.052049488
-0.08891754 -0.037246875 0.062399283 0.03094382 0.10534763 0.140076 -0.043711253 -0.05290617
0.0023202242 -0.09808102 0.06934599 -0.024064625 -0.1095864 -0.1000359 -0.107851475 0.039157253

net.4.weight f4 [1, 64]
00000000: db67 763d 9ba7 813d 1f23 5ebd 6e28 25bc
00000010: eb75 a3bd ae9a 8ebd b961 5c3a ce2c 81bd
00000020: f024 dd3d 9a79 1dbe 4bce b8bd c9c6 133d
00000030: dc8f b9bd d548 1c3c 24c5 b93d cc30 9d3d
00000040: a3ac 063e 0e6d a2bd c9c9 963c 04ba 9bbc
00000050: 1332 61bc 43ec c83c 08bd ae3d fa10 f93d
00000060: 6731 da3b 1212 373d 527e dc3a 7ba8 c0bb
00000070: 6e5a 0dbd 1bd0 773c b81e 92bd 166d 47bc
00000080: 95a8 1fbd 5935 babd 8699 783d b794 a63d
00000090: dc85 893b fe2f 22b9 290b c63c befd 8f3d
000000a0: d2aa 6cbd 65ef 2339 7934 d2bd 7110 0c3d
000000b0: 9979 953d 7bb8 e03d c665 e73c 9ffd 69bc
000000c0: 6d5a 2fbc 5df7 923d f6af 1f3e 1433 3bbd
000000d0: 39e3 d33d 8a8f cc3d 96f0 d43c 74aa c4bd
000000e0: c3a8 91b9 e30d a4bc 7cd6 94ba b08d 25be
000000f0: a7bf 063e 6c00 e5bc 11d1 d73a 4cc1 073e
0.060157638 0.06330796 -0.054232713 -0.01008044 -0.079814754 -0.069630966 0.0008406896 -0.06307374
0.10798061 -0.15378419 -0.09023722 0.03607825 -0.09060642 0.009538849 0.09070805 0.07675323
0.13151793 -0.07930957 0.018406766 -0.019009598 -0.013744849 0.02452672 0.085321486 0.12161441
0.0066587212 0.044694968 0.0016822314 -0.0058794594 -0.03451007 0.0151253 -0.071347654 -0.012172004
-0.03897913 -0.090922065 0.060693286 0.08133834 0.0041968655 -0.00015467402 0.024175243 0.07030819
-0.057780094 0.00015634073 -0.102639146 0.034195367 0.072985835 0.10972687 0.028246772 -0.014281659
-0.0107027115 0.07176087 0.15594468 -0.04570301 0.10346074 0.099883154 0.025993627 -0.09602824
-0.00027782292 -0.020026153 -0.0011355425 -0.1616733 0.13159047 -0.027954303 0.0016465505 0.1325733
