CF_HV-AV_2/GAIL/logs/gail/model/gail_actor.pkl (torch, 20051 bytes, 5 tensors)

net.0.weight f4 [64, 3]
00000000: 7c17 603c df3b a23e 0b19 f1be 494b acbe
00000010: d25c 3cbd 9e83 803e ab3f e0bc cb9f ee3e
00000020: 7ebd 38bd 15b6 303e 4523 1cbe f85f 843b
00000030: 2999 20bf 7033 0fbf 88f6 89be 7915 423c
00000040: 051b 7b3e db1b b33e de31 a6be fe92 84bd
00000050: 0508 9b3e f92a b63e e3c0 30be aebc e13e
00000060: e642 13be 61cc 9d3c 7263 e03e b013 23bf
00000070: e022 14bf 203a 39be 940f 57be ec3f 023f
00000080: 5c11 01bf c331 1b3c aee2 03be caaf 40bf
00000090: e369 8fbe 1ee7 0d3f bde4 b53e f8d4 333e
000000a0: 026e 95bd 5f04 ecbe f1d0 c33d e89f 0bbf
000000b0: 07be d8be 68b1 b3be 7707 a03e eb6d 493e
000000c0: 0b97 d0bd 3281 093e 4d5a 283f 7901 043f
000000d0: 9c34 0a3d 8d81 893d c68d b53e d71f bbbe
000000e0: e44b 4a3e 4884 53be 5cf9 80be 341d cbbe
000000f0: 4bd5 1f3e 5ff5 2b3e 7f61 ecbe 9d12 f93d
00000100: 4cef 9b3e c511 043e 1266 913b 3407 b63d
00000110: b3f0 db3e 4bbd 003f ed23 fbbe 7244 8bbe
00000120: bde8 723e fd60 0c3f 5b1c ce3e 4f98 0f3f
00000130: eddf 843d e58f 14bf 0b03 793d 92ce b8be
00000140: 576e 0bbf d23a e43e 4b57 c43e cb6a 1abf
00000150: e990 d33d 8993 c7bd f0ea bbbc 9d9b 82be
00000160: 893e 6a3e d804 bfbe 0d16 6d3e 8fc3 c53e
00000170: 2016 993e 4f7e 2c3e 0f8b 1ebf 704f a6be
00000180: 7dd7 a23e 214a ac3d 741c ccbe ff60 99be
00000190: a774 133f a349 fe3e 9ee7 cbbc c9d0 ba3d
000001a0: 249c 1ebf 81fb 9c3d 2047 a3be db7e 13bf
000001b0: 14fe 0fbd beb8 c13d a72e b0be fd31 9a3e
000001c0: 965b c8be f179 1f3f b667 bd3e 0a47 05bf
000001d0: 970b 60bd 8e90 b9bc 04c9 163d 5750 993e
000001e0: a3ec 7b3e 1729 7c3c 360e 3bbe 5d96 a63e
000001f0: 00ce 03bf 93ee 85be 7670 07be 83d4 acbe
00000200: a87f 4cbe 1fcc a2be 804d d6bb ccab 4a3e
00000210: 521d 84be 6344 a33d a27d 153f 2599 27bd
00000220: 2067 f23a fbf8 00bd ec39 de3d 538a ca3e
00000230: 955c 013f a23b c33e 869f 163f ff49 20bd
00000240: 3abf a2be 3498 0cbe a2ce 0c3f 167c e0bb
00000250: 0926 7cbe 2df2 e5be e853 16bf ce61 1dbf
00000260: 4e02 09be 9cdf 873e 3b0f 713e 2fbf 1abf
00000270: 0d17 ac3e 8531 fabe d6ee 74be f79a 7abe
00000280: 2ecf 65be 4993 7abd f050 19bf f64f 2dbf
00000290: 7857 d6bd fd6e 943d a955 40be b946 ac3e
000002a0: 0bc6 19bf 253f a6bc 5489 fa3e d5be 4fbe
000002b0: 0938 0e3f d543 683e 0754 10bf 9537 bb3e
000002c0: 1fd6 02be ec05 73be e04b f63e 9fcd 1fbf
000002d0: 11fd 433d e76a 0dbe 608d 043f fa0e 75bc
000002e0: ac8b c03d bbf5 913e b7da 2fbc 3a3e 9dbb
000002f0: bdef 20bf cb57 c23e 1818 1e3f 934b ba3e
0.013677474 0.31686303 -0.4708942 -0.33651188 -0.045986958 0.25100416 -0.02737411 0.46606287
-0.04510259 0.17256959 -0.1524783 0.0040397607 -0.62733704 -0.5593786 -0.269459 0.01184594
0.24522026 0.3498219 -0.3245992 -0.06473349 0.30279556 0.3557966 -0.1726108 0.44089264
-0.14380988 0.019262495 0.4382587 -0.63701916 -0.57865715 -0.18088579 -0.21002036 0.5087879
-0.50417113 0.009472313 -0.1287944 -0.7526823 -0.28010473 0.5543078 0.35526076 0.1756171
-0.07296373 -0.46097085 0.09561337 -0.5454087 -0.4233248 -0.35096288 0.31255695 0.19670837
-0.10185059 0.1342819 0.6576279 0.5156475 0.03374158 0.06714163 0.35459727 -0.3654773
0.19755512 -0.2065593 -0.25190246 -0.39670718 0.15608709 0.1679282 -0.46168134 0.12161753
0.30456007 0.12897404 0.0044372166 0.08888093 0.42957076 0.5028884 -0.49050847 -0.27200657
0.23721595 0.5483549 0.40256009 0.5609178 0.06488023 -0.58032066 0.060793918 -0.360951
-0.5446524 0.44576126 0.3834785 -0.60319203 0.10330374 -0.09744937 -0.022939175 -0.2550935
0.22875418 -0.37308383 0.23152943 0.38625762 0.29899693 0.16845058 -0.61930937 -0.3248248
0.3180503 0.084125765 -0.39865458 -0.29956815 0.5759987 0.49665555 -0.024890717 0.09121854
-0.61957 0.07665158 -0.31890202 -0.5761544 -0.035154417 0.09459065 -0.34410593 0.30116263
-0.39132375 0.6229544 0.36993188 -0.5206152 -0.054698553 -0.022651937 0.036812797 0.29944107
0.24601988 0.015390656 -0.1826714 0.32536593 -0.51486206 -0.2615858 -0.13226494 -0.33755884
-0.19970572 -0.31796357 -0.0065400004 0.19792098 -0.2580362 0.07972028 0.58394825 -0.040917534
0.0018493868 -0.031487446 0.108508915 0.39558658 0.50531894 0.38131434 0.58837163 -0.03913307
-0.3178652 -0.13729936 0.55002797 -0.0068507297 -0.24623884 -0.44911328 -0.5872178 -0.61477363
-0.13379785 0.26537788 0.23540966 -0.60447973 0.33611336 -0.48865905 -0.23919234 -0.24473177
-0.22442314 -0.06117562 -0.59889126 -0.67700136 -0.10465902 0.07247732 -0.18782677 0.33647707
-0.60067815 -0.020293782 0.48932898 -0.2028764 0.5555425 0.22682126 -0.56378216 0.36565843
-0.12776993 -0.23732728 0.48104763 -0.6242313 0.047848765 -0.13810311 0.5177822 -0.014957184
0.0940164 0.2850779 -0.010733298 -0.0047986777 -0.6286581 0.37957606 0.61755514 0.36385784

net.0.bias f4 [64]
00000000: 38bb c8be 9dab 6a3e 546b c8be e20d 9bbe
00000010: 9d53 ebbe 2752 663e a065 17be 73eb e9bd
00000020: 7f2f 19bd 5233 483e def7 d4be 7070 08be
00000030: 29a9 91be 4530 933e 0507 6ebe 92be e93e
00000040: 128c a53e e53e 01be 18c9 7dbd d72f 9e3c
00000050: 7f72 563d 20a1 27be bd49 8fbd ef17 ce3c
00000060: f6d0 bbbe dfca abbe 3317 ed3e e77f fcbe
00000070: eda4 17bd 7cd1 123f 81c8 993e 51a4 31bd
00000080: dbdf 13bf 0135 9d3e 47d1 30be 6302 02bd
00000090: 6850 3ebe 4b29 13be 690a 03bd 9992 d53e
000000a0: f960 943c a897 0e3f 58fa 9d3e 2f9f 83be
000000b0: dac9 c13e 0af3 d3be 762a 61be c03e 463e
000000c0: 70dd b23e 2363 fc3e 163c 87be 0efc babd
000000d0: a7cc 933e 5290 26bf dbcb 8d3e ad06 d3be
000000e0: df75 9d3c 6066 87bd 526f 9fbe 8ea2 cb3d
000000f0: 4358 e93e 82a0 b3be e060 64be d43e a0bd
-0.39205337 0.22917028 -0.39144385 -0.3028403 -0.4596223 0.22492276 -0.1478486 -0.114218615
-0.03739881 0.19550827 -0.41595358 -0.13324142 -0.2844937 0.28747764 -0.23244865 0.45653206
0.32333428 -0.12621649 -0.061959356 0.019309921 0.052355286 -0.16370058 -0.06996486 0.025157897
-0.36682862 -0.33553216 0.46306762 -0.49316332 -0.03702252 0.573509 0.30035785 -0.043369595
-0.5776345 0.307045 -0.17267333 -0.031740557 -0.1858536 -0.14371221 -0.03199235 0.41713408
0.018112646 0.5570016 0.3085506 -0.25707385 0.37849313 -0.41396362 -0.21988854 0.19359875
0.34934568 0.49294385 -0.2641303 -0.09130107 0.28867075 -0.65063965 0.27694592 -0.4121603
0.019221244 -0.06611323 -0.31139618 0.09943114 0.4557515 -0.35083395 -0.2230258 -0.078244835

net.2.weight f4 [64, 64]
00000000: d783 ffbd 4e24 803d f185 61bd 1c8c 9fbd
00000010: b865 8bbd b1fb 893d 6dee 913d d9e6 bf3d
00000020: 3ea9 f83c a8c1 1abd 86e7 c3bb 5092 3c3d
00000030: 68f5 7e3d db38 2d3d 1722 32bd 86a3 90bd
00000040: ccab 27be 2a95 a23c d612 91bd 150a dcbd
00000050: 8701 d73d 7d2f aebd bcd9 25bd d7f4 293d
00000060: eeff f337 7820 dabd fb04 9fbd 4d63 c33d
00000070: ca3c cd3c c7f5 f93d 3df6 3bbd 43fe 373d
00000080: 5d9c 0fbd 9ecc 54bd 3e1f 81bd 2a46 563d
00000090: 85ae dc3d f93f dabc c8de 5639 f2ec c2bd
000000a0: cc38 a13d 2e13 71bd a476 633d 6e6e 08bd
000000b0: 696c 9fbd 2f08 f63c ef7e 8ebd cbb1 cb3c
000000c0: d09e ef3c d712 a3bd fccb ca3c b61b 4a3d
000000d0: 099d a53d 84da 3ebc a1c9 c9bd 0feb b1bc
000000e0: 6a60 883d 65d1 86bd 3dc7 043d bdde 0e3e
000000f0: aa62 1ebe ffbd 18bc 000b 933d 6ae8 bf3b
00000100: 6844 a53c 887c 053c f094 a3bd 1852 393c
00000110: 61d9 a03d 78ee f93d 67a6 863d 2e9e c23c
00000120: b300 2f3d 98f3 8cbd 882b 72bd ba4f e3bd
00000130: 5286 e83d 2eb6 ba3d 7619 b4bd 6f35 233d
00000140: bd51 943d 9f1f 073e c44f e23d 2efc b53d
00000150: 8a67 aabc 7da1 13bd 2e05 b93d 3e2b a13d
00000160: 44ad 89bd 6eb4 ec3d 75c6 823d 7cc7 9b3d
00000170: aa6a 9abd 1889 5b3d 73d3 12bd 708c b23d
00000180: 14e9 6fbc 5129 f73c 2017 ed3c c5b1 4d3d
00000190: 1cce 803c b94f 213d 4ce0 9ebd c4ed c63c
000001a0: e2a6 9ebd a67d debd 1825 ddbd 38c0 bb3d
000001b0: 1730 573d 6413 e93d dc1b dc3d 9d30 d4bd
000001c0: e70d bfbd 996d a6bc 2eae b6bd d788 c23d
000001d0: 33fc a0bd 3c21 8dbd 4adf 03be 0b31 aabd
000001e0: d6d6 cb3d 7ac7 d43d 265c 9b3d 9c46 293e
000001f0: b91a 1d3d 9239 09bd ed66 7a3d ce80 f43d
00000200: 989b 0c3d adb5 003e 0da3 4e3d 4d8e 933d
00000210: 95ce 20bd 7b32 603d 936f 8b3c 0723 f6bc
00000220: 12c9 5fbd 2d7d 86bd 6163 00be b06c a83d
00000230: 0a42 e83d 3051 cabc 43bd a1bd 42f6 e53d
00000240: 594d f03d c387 163c 2e02 80bd 513a f43d
00000250: 25bc 423d 2771 cbbd b96b 0d3e 2030 af3d
00000260: 9900 4dbd 1cf3 b33d 11c7 aabd 1469 c2bc
00000270: f4f1 d03d 2ec1 06bc b82c bebd bf4c 23bd
00000280: c610 09bd 8077 163b bba7 64b9 e88a e83d
00000290: 3945 68bd 9c93 71bd d832 95bc a240 8f3d
000002a0: f15d 843d 6759 13be 493e 95bc 8a96 c2bd
000002b0: b7f4 0dbd 72dd 333d a0b0 bdbd a5e2 2b3d
000002c0: 9065 df3d 449d 813b cb6a a1bd 9e83 49bd
000002d0: 1d44 20bb 1448 babd 4962 883d cb5f d4bd
000002e0: f415 0ebe 94cb ebbd 5b00 21bc e762 f53c
000002f0: c0b5 16bd 2741 df3d 8427 83bd 8989 033d
00000300: 0a94 6c3b cdb1 ecbd bbed bf3d cc67 853d
00000310: a041 fd3d b8b0 813d 710c acbd ba4e df3d
00000320: f100 ba3c 9557 703d f45e 0dbe 4801 2bbd
00000330: fdd3 b5bd b790 6dbd f046 a83c ac64 b6bd
00000340: 7e8e a73d db6d 8f3d 62f5 b03c fb8d acbd
00000350: 8294 c2bd fd64 1bbd 4b26 a33d 5ec6 f23d
00000360: eb70 943d bdb1 003c 0173 df3c 516c f9bd
00000370: 0d15 dfbd 2bc0 063d d5b4 8fbd fe9b 703d
00000380: cfee abbd 241a b2bc 4e37 eebd fe9a 6f3d
00000390: 7405 a9bd 9233 033e 8435 543d c21b ad3d
000003a0: cc91 303c e650 90bd 1632 e7bc 7574 2b3c
000003b0: 619f a53d ffbf c0bd 2bc3 d93d 602d 55bc
000003c0: 090e d9bd ff89 a0bd 1d50 e13d 124d eb3d
000003d0: b93a 16be f513 b33d e730 7e3d a747 a23d
000003e0: 04be aa3d d55e 58bd 7a68 6c3d 897a 8bbc
000003f0: 65c2 683d 2e31 4e3d 17ac 5abd c278 9f3d
-0.12476318 0.062569246 -0.055059377 -0.077903956 -0.06806511 0.067374595 0.07125554 0.093702026
0.030354138 -0.03778234 -0.0059785275 0.046037972 0.062245756 0.04229055 -0.04348954 -0.070624396
-0.16374129 0.019846518 -0.07083671 -0.107441105 0.10498338 -0.085051514 -0.04049085 0.041493263
2.9087034e-05 -0.10650724 -0.07764622 0.095404245 0.0250534 0.122050814 -0.045889128 0.044920217
-0.03506123 -0.05195295 -0.06304787 0.052313007 0.107754745 -0.026641833 0.00020491623 -0.0951785
0.07872161 -0.05885618 0.055533066 -0.03330844 -0.077843495 0.0300332 -0.069578044 0.024865052
0.029250532 -0.07962578 0.02475547 0.049342833 0.08086593 -0.011648778 -0.09852911 -0.02171853
0.066590145 -0.065829076 0.03241657 0.13952155 -0.15467325 -0.009322642 0.071798325 0.0058565633
0.02017422 0.008147366 -0.07987392 0.011311077 0.07853962 0.122036874 0.065747075 0.023757067
0.042725276 -0.06882399 -0.059123546 -0.11099191 0.113537446 0.09116779 -0.08793919 0.03984588
0.07242153 0.13195656 0.1105037 0.0888599 -0.020801324 -0.03604268 0.09034191 0.07869576
-0.06722501 0.11557852 0.06385509 0.07606408 -0.07539876 0.05359754 -0.035846185 0.087181926
-0.0146429725 0.030171068 0.02894169 0.050218362 0.01572328 0.03938267 -0.07757625 0.024283297
-0.07746674 -0.10863809 -0.10798091 0.09167522 0.052536096 0.113806516 0.10747501 -0.10360835
-0.093288235 -0.020315932 -0.08919941 0.094987564 -0.07860603 -0.068911046 -0.12878147 -0.083101355
0.09953086 0.1038961 0.07585935 0.16530842 0.038355563 -0.03350217 0.061133314 0.1193863
0.034328073 0.12569304 0.050448466 0.07204876 -0.039259512 0.054735642 0.017020976 -0.030046
-0.054635115 -0.06566844 -0.1253791 0.082238555 0.11340721 -0.024696916 -0.07897427 0.112286106
0.11733503 0.009187642 -0.06250416 0.119251855 0.04754271 -0.099336915 0.13810624 0.08554101
-0.050049398 0.08786604 -0.0833875 -0.023731746 0.10202399 -0.008224769 -0.09285873 -0.039868113
-0.033463262 0.002295941 -0.00021806259 0.11354619 -0.05670664 -0.058978662 -0.01821272 0.069947496
0.064632304 -0.14389573 -0.018218176 -0.09501369 -0.034657206 0.04391236 -0.09262204 0.041964192
0.109080434 0.003955515 -0.07881697 -0.049197786 -0.0024454661 -0.09095779 0.066593714 -0.103698336
-0.13875562 -0.11513439 -0.009826745 0.029954387 -0.036794424 0.10901099 -0.064040214 0.032113586
0.003609898 -0.1155735 0.09371515 0.06513938 0.123660326 0.063325346 -0.084008105 0.10903688
0.022705527 0.058677275 -0.13805753 -0.04174927 -0.08878324 -0.05799934 0.020541638 -0.089059204
0.08181475 0.07003375 0.021601383 -0.08425518 -0.09500982 -0.037938107 0.07966288 0.11854242
0.072481 0.007854876 0.027276518 -0.12178863 -0.10892687 0.03289811 -0.07016913 0.058742516
-0.083951585 -0.02174098 -0.11631642 0.05849742 -0.08252993 0.12812641 0.05180885 0.0845256
0.010776948 -0.0704668 -0.028222125 0.010464777 0.0808704 -0.0941162 0.106329285 -0.0130113065
-0.1059838 -0.07838821 0.110016085 0.11489309 -0.14670838 0.08744041 0.062058356 0.07923823
0.08337024 -0.052824814 0.057716824 -0.017026203 0.056826014 0.05033987 -0.053386774 0.077867046

net.2.bias f4 [64]
00000000: a957 89bd 3292 f43c 1760 e23d f760 ad3c
00000010: 8a7a 77bd fc7f 8d37 e567 edbd 6039 a9bd
00000020: 9bc7 eebc 45a0 a2bd 26b0 c83d e96a c33c
00000030: 7098 c63d 8d91 edbc 877c 44bc 05ee 013d
00000040: 0dea 3cbd df45 35bd 26e6 00be 841a ce3d
00000050: a0f1 e73d f8de 00be cb16 23bd b91d d1bd
00000060: e99a 5ebd 0177 c63d 62ab 723d 19f7 87bc
00000070: af70 6f3d a636 203d f158 5a3d 3030 d2bd
00000080: 9c3a 0d3d 49df f8bd 6c39 a0bd 3a88 4ebd
00000090: b554 c5bc bf92 cebd 8a49 043c abdc 943c
000000a0: 0172 37bd 14b2 213d 7e8d e43d 54ba 28bc
000000b0: 4a25 79bd d8af dcbd f236 b1bd 67d0 95bd
000000c0: ac20 afbd c700 2cbd 52df 873d 33d2 2a3d
000000d0: d504 ea3d 5652 eb3d 0e9f 2ebd f551 7abd
000000e0: c69e b73b ffc9 d2bd 0768 8f3d e972 ecbc
000000f0: b87f cfbd 177a c1bd f21b bbbd 2897 143d
-0.06706173 0.029854868 0.11053484 0.0211644 -0.060419597 1.6868107e-05 -0.11592082 -0.082628965
-0.029147914 -0.07940725 0.09799223 0.02385469 0.09697044 -0.029000068 -0.01199258 0.031721134
-0.046121646 -0.044256087 -0.12587795 0.10063651 0.11325383 -0.12585056 -0.03981666 -0.10210747
-0.054346953 0.09690667 0.059245475 -0.016597318 0.058457073 0.039114617 0.053307477 -0.10263097
0.034479722 -0.12151963 -0.07823452 -0.050422885 -0.024088243 -0.10086583 0.008074174 0.018171629
-0.044786457 0.03947647 0.111598 -0.01029833 -0.060826577 -0.10775727 -0.08653058 -0.0731514
-0.085511535 -0.04199293 0.06634392 0.041704368 0.11426703 0.11490314 -0.042632155 -0.061113317
0.005603644 -0.10292434 0.070022635 -0.028863387 -0.10131782 -0.09447115 -0.091361895 0.036276966

net.4.weight f4 [1, 64]
00000000: 2a27 013e 973f 513d 18b8 0bbd 4487 adbd
00000010: d4eb 9bbd 3221 a6bd d657 22bd c6d5 85bd
00000020: a3e5 a73d 07bb e7bd 4332 d4bd c743 b43d
00000030: 8b25 3fbe 3ee7 bc3c b4b4 c83d 9dcc e93d
00000040: baf8 b73d 8382 b4bc a0cb 5f3d e393 3bbd
00000050: 11bb 39bd ee3d 4f3c 1605 513d 67b7 fc3d
00000060: 2f45 3c3d 2a7b e23d 89ee b83c 7c6c 9dba
00000070: 7d52 edbb 1ce3 383c 15dc d4bd c2ba 29bd
00000080: 218a 98bd ee45 c2bd 665a 1e3d b814 083d
00000090: 767c 323d 3271 5dbd b8e9 693d 89cf df3d
000000a0: 8011 93bd 8e07 7a3d 1d64 d1bd ef2e 963d
000000b0: c4ac e03d bea3 f33d a4bc 433d 955e febc
000000c0: 5f91 1bbd 0702 fb3d e1e9 e53d 99d2 93bd
000000d0: 5654 e23d bfba 1d3e 5ad9 ba3d 6d15 f9bd
000000e0: cc1f 013d 0a3c fbbc 332c 223e 6ae8 25be
000000f0: a689 cc3d 7a52 25bd 843f 183b 099d b33d
0.12612596 0.051086035 -0.034111112 -0.084730655 -0.0761334 -0.081118 -0.039634548 -0.06534915
0.081980966 -0.113149695 -0.10361149 0.0880199 -0.18666665 0.023059484 0.098000914 0.1141598
0.08982988 -0.02203489 0.05463755 -0.045795333 -0.045344416 0.0126490425 0.05103024 0.12339669
0.045964416 0.11058648 0.02257468 -0.001201048 -0.0072424994 0.011284616 -0.1039354 -0.04143787
-0.07448221 -0.09485994 0.03866043 0.033222884 0.043575726 -0.05406303 0.057107657 0.10928256
-0.07181072 0.06104236 -0.10224173 0.073331706 0.109704524 0.11896466 0.047787324 -0.03105096
-0.037980434 0.12256246 0.112262495 -0.07217903 0.11051242 0.15403269 0.09123488 -0.1216229
0.031524464 -0.030668277 0.15837173 -0.1620194 0.09987192 -0.04036186 0.0023231218 0.087701865
