CF_HV-AV_4/AIRL/logs/airl/model/airl_actor.pkl (torch, 6995 bytes, 5 tensors)

net.0.weight f4 [32, 3]
-0.0481667 0.22530846 -0.54641443 -0.37607902 -0.17118068 0.19908598 -0.03970761 0.41466132
-0.035116922 0.14293163 -0.19771594 -0.13902792 -0.58088887 -0.4275621 -0.30097625 -0.015537414
0.18893959 0.3908152 -0.4313319 -0.2600176 0.2195754 0.46202257 -0.10633377 0.43590376
-0.07743529 0.08183978 0.55598927 -0.58833617 -0.4031357 -0.19795132 -0.2342005 0.51267654
-0.28174672 -0.25838405 -0.40104967 -0.5524456 -0.31093314 0.5286369 0.23857342 0.37404478
0.1009755 -0.23219332 0.09607846 -0.5384693 -0.4245322 -0.27136898 0.39569214 0.31673
-0.26225135 -0.045311596 0.36780548 0.6126229 0.24366921 0.03760434 0.26942357 -0.44227466
0.11224982 -0.4761758 -0.44503322 -0.33817956 0.3039651 0.2299383 -0.33693627 0.19029677
0.34557465 -0.009604743 -0.007256426 0.12965143 0.35742527 0.41096264 -0.5718409 -0.31168652
0.21702185 0.4625223 0.5157604 0.54578006 0.14717588 -0.49000776 0.022600928 -0.4042843
-0.5031771 0.5414749 0.40563044 -0.6068712 0.10178385 -0.11780791 -0.1024566 -0.26924017
0.16959345 -0.41699526 0.18630262 0.26295748 0.4244434 0.24504589 -0.5517058 -0.39160246
00000000: 724a 45bd 43b7 663e d1e1 0bbf 6e8d c0be
00000010: fd49 2fbe 32dd 4b3e 72a4 22bd 7d4e d43e
00000020: c3d6 0fbd ab5c 123e 0c76 4abe 565d 0ebe
00000030: 22b5 14bf 6be9 dabe 8f19 9abe a390 7ebc
00000040: 6179 413e ee18 c83e 89d7 dcbe 0721 85be
00000050: 60d8 603e 398e ec3e 85c5 d9bd c72e df3e
00000060: 6596 9ebd 9d9b a73d 5055 0e3f 339d 16bf
00000070: cd67 cebe c0b3 4abe 42d2 6fbe c53e 033f
00000080: 1b41 90be ea4a 84be 6256 cdbe 136d 0dbf
00000090: a132 9fbe bf54 073f 974c 743e cc82 bf3e
000000a0: 3ecc ce3d 16c4 6dbe c9c4 c43d 20d9 09bf
000000b0: 495c d9be e0f0 8abe 2998 ca3e 6f2a a23e
000000c0: cf45 86be a798 39bd 0051 bc3e dbd4 1c3f
000000d0: 6c84 793e 0207 1a3d e3f1 893e d371 e2be
000000e0: 3ce3 e53d 51cd f3be 65db e3be df25 adbe
000000f0: 50a1 9b3e f274 6b3e e982 acbe 28dd 423e
00000100: 29ef b03e 365d 1dbc 50c7 edbb 58c3 043e
00000110: 7200 b73e b269 d23e 2a64 12bf 6095 9fbe
00000120: fa3a 5e3e b9cf ec3e e008 043f 3eb8 0b3f
00000130: 46b5 163e 4ce2 fabe 9525 b93c 5afe cebe
00000140: 37d0 00bf 199e 0a3f cbae cf3e e95b 1bbf
00000150: 0d74 d03d 4645 f1bd c4d4 d1bd d9d9 89be
00000160: e8a9 2d3e 6780 d5be 1dc6 3e3e 5da2 863e
00000170: a550 d93e 4fed 7a3e 973c 0dbf 1e80 c8be

net.0.bias f4 [32]
0.21913844 0.17047386 -0.4728048 -0.35930425 0.5053344 0.33188242 -0.27422345 -0.13142723
-0.53097844 -0.05320449 -0.43207163 -0.4492556 0.008090574 0.15812644 -0.2229222 0.387716
-0.3744014 0.54693407 0.30102527 -0.52539355 -0.14278409 0.060465407 0.061903097 0.031058088
0.21973932 0.067938164 -0.30658 0.24518517 -0.5470976 -0.3852828 -0.16668649 -0.25212455
00000000: d465 603e b390 2e3e 7913 f2be baf6 b7be
00000010: 985d 013f 7eec a93e 0467 8cbe dc94 06be
00000020: 34ee 07bf f4ec 59bd 7e38 ddbe d404 e6be
00000030: 548e 043c e6eb 213e b845 64be b682 c63e
00000040: 8ab1 bfbe df03 0c3f fc1f 9a3e 3180 06bf
00000050: fe35 12be 93aa 773d 1a8e 7d3d 886d fe3c
00000060: 5803 613e 2a23 8b3d 0ef8 9cbe d211 7b3e
00000070: 970e 0cbf ca43 c5be ddaf 2abe 7816 81be

net.2.weight f4 [32, 32]
-0.06968243 -0.14225788 -0.030684667 -0.023079943 -0.1128164 0.031426262 0.1290195 -0.012909279
0.05294598 -0.012788928 0.09098545 0.1149441 0.24094065 0.11035486 0.16016796 0.048082884
-0.16007876 -0.08626598 0.08740083 0.0013597051 -0.089450724 -0.13793993 -0.12851484 -0.18107532
-0.038368955 0.097232185 0.08736861 -0.17289795 0.06036379 -0.13654992 -0.039694116 -0.11186241
-0.07026321 -0.0025731074 -0.17986433 -0.24219 0.004156078 0.027621629 -0.048460323 0.03772983
-0.09974456 0.01991947 0.24299215 -0.040176254 0.257503 0.032907147 -0.14452802 0.20516399
0.010041687 -0.110765 0.07110461 -0.11098331 -0.012049633 -0.06892646 0.14121325 -0.016383817
0.05306114 0.0319071 -0.03128604 -0.06884911 -0.2140865 0.12889186 0.108253606 0.08560507
-0.1496388 0.027194778 -0.13451068 -0.16578788 -0.084181964 0.0883284 -0.086416796 -0.0076365736
0.06174062 0.13286333 -0.079871304 -0.10234378 -0.021131739 0.10614583 -0.069588885 0.22040524
0.077003896 0.0034813695 -0.048873212 -0.016001854 0.00438402 -0.059309334 0.030515913 -0.020400511
-0.15727466 -0.10878619 0.13685502 -0.1622586 -0.05924139 0.19340588 0.044932004 -0.029637614
-0.1257044 0.0635204 -0.10806409 0.036909554 -0.082759246 -0.026858216 -0.021736484 0.1622237
-0.04053535 0.13481495 0.05285414 -0.13534749 -0.0128942225 -0.09952251 -0.084800884 -0.030731805
0.03695617 0.15616924 0.018423442 -0.023251439 0.11432226 -0.14727584 0.116694346 -0.0736625
0.02602979 -0.009183515 -0.10120123 0.04674488 0.19337437 -0.09358831 -0.08143555 -0.041173678
-0.14734085 0.05627736 -0.068839766 -0.046457876 -0.12485313 0.09077982 0.07046095 0.1504305
0.0059031774 -0.08213723 -0.10049657 0.029008139 0.06491894 0.07126915 -0.097138055 -0.15201312
-0.18759875 0.061299425 -0.04441344 -0.18074217 0.17744072 -0.09161851 -0.034167457 0.09965623
0.028850669 -0.098289005 -0.15599269 0.16388781 0.0742247 0.1229137 -0.036004636 0.07683507
-0.061741028 0.008123999 -0.11606976 -0.016440926 0.0714702 0.020542573 -0.024068639 -0.11585652
0.17774138 -0.11594692 0.1330652 -0.043701828 0.0029483628 0.016204529 -0.093290724 0.11716847
0.047930464 -0.14690477 -0.024947582 0.090972945 0.055009417 -0.037971698 -0.11802183 -0.077907056
0.045683254 -0.07840545 0.06575593 0.102189474 -0.14374924 0.019638896 0.05737715 -0.023983039
-0.00078785396 0.029208234 -0.12870689 -0.056577377 0.12879412 0.21040995 0.110581994 0.0114485575
0.15005139 -0.079419315 -0.08641465 -0.14534228 0.25238723 0.10152476 -0.13070074 0.13584407
0.1504657 0.1701245 0.07621628 0.14360651 -0.047223244 -0.06865182 0.17390992 0.044227507
-0.112990834 0.14539328 0.073252656 0.089676045 -0.16295587 0.060861703 -0.06821233 0.09931004
-0.018642448 0.060837016 0.03809107 0.14061627 -0.067688815 0.084671065 -0.13127078 0.034063406
-0.16587023 -0.1821337 -0.18145317 0.13163428 0.017323978 0.17382199 0.14078449 -0.22167906
-0.124804616 -0.020836785 -0.07259898 0.114966586 -0.12663426 -0.07841354 -0.17711364 -0.061108302
0.15332375 0.15030152 0.12488613 0.14416118 0.18512991 -0.057382 0.085740075 0.1731932
00000000: a9b5 8ebd 0dac 11be 695e fbbc 2612 bdbc
00000010: 490c e7bd d3b8 003d b01d 043e 7181 53bc
00000020: e2dd 583d a788 51bc 9456 ba3d d067 eb3d
00000030: 25b9 763e bb01 e23d 1203 243e 8ff2 443d
00000040: b0eb 23be 38ac b0bd 35ff b23d 2238 b23a
00000050: f131 b7bd 2040 0dbe 6599 03be cf6b 39be
00000060: c428 1dbd ab21 c73d 50ee b23d 290c 31be
00000070: 0540 773d bed3 0bbe 4c96 22bd 1f18 e5bd
00000080: 28e6 8fbd 94a1 28bb 5b2e 38be a800 78be
00000090: b62f 883b c146 e23c 557e 46bd 988a 1a3d
000000a0: e046 ccbd 282e a33c efd2 783e db8f 24bd
000000b0: 6fd7 833e a5c9 063d 27ff 13be 8216 523e
000000c0: e385 243c c3d8 e2bd 4b9f 913d 384b e3bd
000000d0: d36b 45bc 5129 8dbd 359a 103e 5b37 86bc
000000e0: a356 593d 05b1 023d ca25 00bd c300 8dbd
000000f0: 7e39 5bbe 3afc 033e 11b4 dd3d b651 af3d
00000100: ea3a 19be 95c7 de3c 2bbd 09be 4cc4 29be
00000110: 9867 acbd 85e5 b43d 4afb b0bd 393c fabb
00000120: bbe3 7c3d 530d 083e 9193 a3bd 9e99 d1bd
00000130: 781c adbc fc62 d93d 9e84 8ebd e9b1 613e
00000140: 38b4 9d3d b027 643b 472f 48bd 5216 83bc
00000150: d3a7 8f3b 58ee 72bd 82fc f93c f91e a7bc
00000160: 9c0c 21be 4bcb debd b923 0c3e 1e27 26be
00000170: 1aa7 72bd 310c 463e 9f0a 383d 95ca f2bc
00000180: a7b8 00be fc16 823d b550 ddbd 792e 173d
00000190: ae7d a9bd c305 dcbc b610 b2bc f81d 263e
000001a0: 6508 26bd ee0c 0a3e 957d 583d 8898 0abe
000001b0: 4a42 53bc 75d2 cbbd 16ac adbd 44c1 fbbc
000001c0: 5a5f 173d d4ea 1f3e c2ec 963c cd79 bebc
000001d0: ca21 ea3d 7acf 16be 72fd ee3d 5ddc 96bd
000001e0: 6d3c d53c 7476 16bc 9742 cfbd 8f77 3f3d
000001f0: ee03 463e 3aab bfbd aec7 a6bd bba5 28bd
00000200: 85e0 16be 1783 663d ddfb 8cbd 9d4a 3ebd
00000210: ffb2 ffbd c5ea b93d d54d 903d 740a 1a3e
00000220: 716f c13b 9037 a8bd 25d1 cdbd 7aa2 ed3c
00000230: 39f4 843d 8ff5 913d 51f0 c6bd 54a9 1bbe
00000240: e319 40be 1b15 7b3d deea 35bd 7a14 39be
00000250: 05b3 353e 7ca2 bbbd 2df3 0bbd 9118 cc3d
00000260: 3d58 ec3c bf4b c9bd 8cbc 1fbe 35d2 273e
00000270: 1f03 983d 2eba fb3d 9979 13bd b55b 9d3d
00000280: 29e4 7cbd 861a 053c fbb5 edbd 1faf 86bc
00000290: f85e 923d e648 a83c 982b c5bc 2f46 edbd
000002a0: d601 363e 9475 edbd 3e42 083e b000 33bd
000002b0: 5239 413b 5cbf 843c 350f bfbd 06f6 ef3d
000002c0: bc52 443d 346e 16be df5e ccbc 0650 ba3d
000002d0: 8e51 613d 3688 1bbd 6eb5 f1bd bc8d 9fbd
000002e0: 5d1e 3b3d 0993 a0bd 0cab 863d b748 d13d
000002f0: 0033 13be c0e1 a03c 4d04 6b3d 1478 c4bc
00000300: fc87 4eba 1b46 ef3c bdcb 03be aebd 67bd
00000310: 9be2 033e b575 573e d078 e23d bb92 3b3c
00000320: 12a7 193e 98a6 a2bd 2afa b0bd 9bd4 14be
00000330: e638 813e 37ec cf3d 6ad6 05be b51a 0b3e
00000340: ae13 1a3e 1e35 2e3e 4817 9c3d 960d 133e
00000350: 296d 41bd 5399 8cbd 7115 323e e727 353d
00000360: bd67 e7bd fae1 143e 7d05 963d 13a8 b73d
00000370: e7dd 26be 1f4a 793d e8b2 8bbd 1063 cb3d
00000380: 0cb8 98bc 3c30 793d 6205 1c3d b6fd 0f3e
00000390: 6fa0 8abd 0668 ad3d d96b 06be 1286 0b3d
000003a0: e3d9 29be 4281 3abe dcce 39be 23cb 063e
000003b0: 04eb 8d3c 64fe 313e cf29 103e d6ff 62be
000003c0: 9099 ffbd e8b1 aabc c6ae 94bd 9a73 eb3d
000003d0: 69ac 01be 4797 a0bd 475d 35be b34c 7abd
000003e0: e700 1d3e a4e8 193e 4dc4 ff3d fd9e 133e
000003f0: b292 3d3e 6309 6bbd 7e98 af3d 8f59 313e

net.2.bias f4 [32]
-0.15112193 -0.02926719 0.12033905 -0.1278438 -0.055703886 0.13957046 -0.036334086 0.081043735
-0.15538941 -0.03138236 -0.07664476 0.12726648 0.09777717 -0.14840712 0.036371995 -0.022658333
-0.05058842 -0.08478353 -0.040724088 0.116442546 -0.1512459 -0.13942535 -0.05515515 0.017207138
0.016438209 -0.019249072 -0.02686828 -0.122457445 -0.027682535 -0.10256079 0.1192431 -0.18884483
00000000: b5bf 1abe bfc1 efbc 5274 f63d 7ce9 02be
00000010: c229 64bd 8feb 0e3e 0dd3 14bd 42fa a53d
00000020: 671e 1fbe ca8a 00bd eef7 9cbd 2552 023e
00000030: 663f c83d 09f8 17be cdfa 143d f89d b9bc
00000040: ce35 4fbd fda2 adbd 4dce 26bd 6e79 ee3d
00000050: 35e0 1abe 85c5 0ebe 5eea 61bd fcf5 8c3c
00000060: 6ca9 863c 3bb0 9dbc de1a dcbc f8ca fabd
00000070: 7cc6 e2bc 640b d2bd ba35 f43d 8a60 41be

net.4.weight f4 [1, 32]
-0.11604132 -0.15487185 -0.058033027 0.07489506 0.13855076 -0.143824 -0.027621899 0.13211024
0.074932784 0.14712986 0.012736065 -0.14102468 0.13609084 -0.0790266 0.111808375 -0.0457259
0.062652834 0.15796486 0.13711525 -0.16942413 -0.14063221 -0.12875015 -0.13185392 0.1638933
-0.038071245 -0.16761786 -0.12879033 -0.065644376 0.065485515 -0.17218529 -0.19017102 -0.15121235
00000000: 12a7 edbd ba96 1ebe 0ab4 6dbd 9562 993d
00000010: 40e0 0d3e 9946 13be 5247 e2bc e847 073e
00000020: 5c76 993d 36a9 163e eeaa 503c c668 10be
00000030: 665b 0b3e b3d8 a1bd cafb e43d 154b 3bbd
00000040: 2150 803d 8ac1 213e f167 0c3e 857d 2dbe
00000050: e401 10be 14d7 03be b704 07be a5d3 273e
00000060: 98f0 1bbd 04a4 2bbe 9de1 03be 8f70 86bd
00000070: 451d 863d 5751 30be 31bc 42be 69d7 1abe
